model_dir/binary_classifier_v0.pth (torch, 6402 bytes, 11 tensors)

layer1.weight f4 [5, 2]
000000 32 5e a8 bd 39 9f 9c 3e aa a3 2b bf 38 7b 56 3e
       -0.08221091 0.30590227 -0.67046607 0.20945442
000010 e7 d5 76 3e b1 f1 25 3f 43 bd c0 3e f9 01 09 bf
       0.24105035 0.64821917 0.37644395 -0.53518635
000020 d8 c8 2c 3e ff f0 41 3e
       0.16873491 0.18939589

layer1.bias f4 [5]
000000 bf c7 0b 3f c5 46 34 bf 2f 20 f8 be 4b 88 2d bf
       0.54601663 -0.70420486 -0.48462054 -0.6778609
000010 02 84 b3 be
       -0.3506165

layer2.weight f4 [10, 5]
000000 16 06 9a be 04 21 71 3e 24 2f 48 3e 70 63 cf be
       -0.30082768 0.2354775 0.19549233 -0.40505552
000010 8f 17 48 3e 68 11 e6 bd ba bc ae 3e 7f 62 fb bd
       0.19540237 -0.11233789 0.34128362 -0.12274646
000020 b6 94 42 3e 0c ee 19 3b 60 21 d7 be 81 2f c0 3e
       0.19002041 0.0023487834 -0.4201765 0.37536243
000030 21 4d ba bd c1 b5 1b be 5e ae df be 1e 6e bf bd
       -0.090967424 -0.15206052 -0.4368772 -0.09347175
000040 41 c5 d9 be f0 31 11 bd 22 2c e4 3e f5 72 52 be
       -0.42533305 -0.035448015 0.4456492 -0.20551665
000050 40 4c b6 3e ae 94 db 3e a7 76 29 3e 58 01 5d 3e
       0.3560505 0.4288687 0.16549169 0.21582544
000060 c3 66 ae 3e af d1 d4 3e 02 f8 7c be ad e0 25 3d
       0.34062776 0.41566226 -0.24703982 0.04049747
000070 e9 93 b2 be 2c 99 83 be ca c2 f3 3d c4 34 88 be
       -0.34878471 -0.25702798 0.119023874 -0.26602757
000080 f3 6b 8f be c7 b3 dc 3d e5 75 66 be d5 43 ca 3e
       -0.28012046 0.10776477 -0.2250591 0.39504877
000090 46 37 64 be 5d 06 6d be d7 d1 98 bd 74 63 7b 3e
       -0.2228671 -0.23146959 -0.07461899 0.24549657
0000a0 f4 f5 35 3e 7e 87 1b be bf af 13 3e 45 9d 37 3e
       0.17769605 -0.15188405 0.1442251 0.17931087
0000b0 6d bb 16 be 11 f9 6b 3e 48 92 2a bc 6c 8f ba 3c
       -0.14719935 0.2304423 -0.010410853 0.022773467
0000c0 e4 8b d4 be 8d f7 8e 3e
       -0.41512978 0.2792324

layer2.bias f4 [10]
000000 61 76 bf 3e 1e 68 f0 bd ad b6 80 3d 8e a1 5e 3e
       0.37395003 -0.11738609 0.06284843 0.21741316
000010 4a 97 be 3e bd 9b 09 bd 77 e9 9d be 42 ea c9 3d
       0.372248 -0.03359579 -0.30842182 0.09859134
000020 61 9a 92 be a7 33 8f bc
       -0.28633407 -0.017480684

layer3.weight f4 [20, 10]
000000 fc 15 14 3e 4c c1 66 be 8c d5 3d 3e 1e a3 58 3d
       0.14461511 -0.22534674 0.18538493 0.052889936
000010 1a 60 82 3d 13 ba 98 3e 97 ca 5b bd 8d 28 2c 3e
       0.06365986 0.29829463 -0.05366 0.16812344
000020 79 36 25 bd 7c e3 5f 3e 62 41 69 bd e9 7f 4f be
       -0.040335152 0.21864122 -0.05694712 -0.20263638
000030 61 71 82 3e 23 d6 f0 3d 17 0d 86 be e8 4e 92 be
       0.25477126 0.11759593 -0.26181862 -0.28575826
000040 d8 ba 3c 3e 8b 78 a0 3e 3b 05 77 bc 9d 4a 24 3e
       0.1843065 0.31341967 -0.015076931 0.16044088
000050 e0 43 49 3e 18 77 82 3d 41 61 95 3e 32 dc 53 be
       0.19654799 0.063703716 0.2917576 -0.20689467
000060 91 4a 24 3d 27 7f 5b 3e 01 cc 5d 3e 45 f7 5d 3e
       0.040110175 0.21435224 0.21659853 0.21676357
000070 92 7e 35 3e d7 fa c9 3d 0e 51 04 3d 48 af 55 3e
       0.17724064 0.09862297 0.032303862 0.20867646
000080 f8 29 3f be 33 71 5c be b8 4e 60 3e ef c9 3f 3d
       -0.18668354 -0.21527557 0.21905029 0.04682344
000090 8c 71 4f 3d 72 a9 20 be d1 ad a4 3d bd de ac 3d
       0.050645396 -0.15689638 0.08040965 0.084409215
0000a0 3e 0b c8 bd e1 87 97 3e 74 9c 65 3e 20 ff 64 3e
       -0.09767769 0.29595855 0.22422963 0.22362947
0000b0 03 d6 87 3d 1c f5 6d bd 05 bc 5d 3e fb 51 a1 be
       0.06632616 -0.058095083 0.21653755 -0.3150786
0000c0 4c 61 41 3e 40 9c 3f be 37 ef f1 3d a3 c4 62 be
       0.18884772 -0.18711948 0.11813205 -0.22145323
0000d0 61 ef 75 3e ec 05 36 3e 67 e1 98 be 74 35 0a be
       0.24017097 0.17775697 -0.29859468 -0.13496953
0000e0 84 9b 52 be c6 c6 9f be 1e ed 8f 3d c2 90 e9 3d
       -0.20567137 -0.3120634 0.070276484 0.114045635
0000f0 a2 4c 0f be 9e 70 cc bd b5 50 dd bb 2b a0 9c be
       -0.13994077 -0.099824175 -0.006754006 -0.30590948
000100 b8 e7 15 3e 92 7c 5a be 86 73 51 3e 23 ba 82 bd
       0.14639175 -0.21336582 0.20454225 -0.06383159
000110 4b 67 68 be 26 24 83 3d dd c5 a1 be 35 00 10 bd
       -0.22695653 0.06403379 -0.3159627 -0.035156447
000120 98 94 19 be 10 be 6f 3e 57 f6 4c 3b 39 ad 0c be
       -0.1499809 0.23412347 0.003127476 -0.13737954
000130 78 56 92 be 6c 94 99 3e ad 8b 02 be 7d c1 5e be
       -0.28581595 0.2999605 -0.12748595 -0.21753497
000140 18 f6 01 be c0 e8 15 be 5e 23 67 3e 97 0c 06 3d
       -0.12691534 -0.14639568 0.22572085 0.03272685
000150 0d a6 cb bd 90 21 e2 bd 22 77 4a be 91 3b d4 3d
       -0.09943781 -0.11041558 -0.19772008 0.10362924
000160 8f fe 00 3e 72 f5 75 be e7 35 2e be c7 e3 68 3e
       0.12597106 -0.24019411 -0.1701275 0.2274314
000170 88 a6 bf bd ed 35 25 3e 12 0e 30 be 0b 17 28 3e
       -0.09357935 0.16133852 -0.17192867 0.1641504
000180 22 31 d9 3d 2c 3a 9b bc b5 68 01 be 8f 80 32 be
       0.106050745 -0.018948637 -0.12637599 -0.17431854
000190 cb 3f c2 3d 8f 40 03 be 02 4a 53 3c 72 fd 9f 3e
       0.09484824 -0.12817596 0.012896063 0.3124805
0001a0 25 8a 84 3e 73 67 0f be 44 25 23 be 8f a6 23 be
       0.25886646 -0.14004306 -0.15932184 -0.15981506
0001b0 e2 09 69 be 9e ac 88 be 4d d4 36 3e ea 0a 1d be
       -0.22757676 -0.26694196 0.17854424 -0.15336195
0001c0 81 8f 2a 3e fb 0f 4c 3e 72 85 51 bd ec 8a 5c 3e
       0.16656305 0.19927971 -0.051152654 0.2153737
0001d0 da 5a 02 be 18 60 35 be 24 d3 09 3e a9 7f 94 be
       -0.1272997 -0.17712438 0.1345945 -0.29003647
0001e0 9e d6 86 be cc 4b 6f 3d 9d 46 39 bb 2f 3f 74 3e
       -0.26335615 0.058421895 -0.0028270849 0.23852228
0001f0 a4 d2 ba bc 68 f9 2b 3c 05 2d 3b 3e 54 4a a4 bd
       -0.02280552 0.010496475 0.18278892 -0.080219895
000200 78 6c 0c be 49 b1 af bd 30 e8 0b 3d 36 8d 8a 3e
       -0.13713253 -0.08578736 0.034156978 0.2706086
000210 b9 87 85 be 00 8a 72 bd e9 01 fd 3d 22 a9 c8 3d
       -0.2608011 -0.05921364 0.1235388 0.097978845
000220 04 52 0a be 11 cd 17 3e ca 18 80 3e 8e 2a 1b be
       -0.13507849 0.1482432 0.25018913 -0.15152952
000230 eb f6 33 3e 54 b3 f2 3d f7 9f 91 3e 9b a0 80 bd
       0.1757466 0.118506104 0.28442356 -0.06280633
000240 a4 fd 35 3e 7a 81 90 be 4a be b8 bd e5 13 35 3d
       0.17772537 -0.28223783 -0.0902067 0.044208426
000250 2f 68 84 be d9 3c b6 bd 36 bb 0b 3e 40 7c 76 be
       -0.25860736 -0.088983245 0.13645634 -0.24070835
000260 4b 92 97 3e 63 8a 27 be 31 21 79 bd 8b 9f ed bd
       0.296038 -0.16361384 -0.06082267 -0.11602696
000270 b3 41 9d be 4c 36 eb 3d 2a 89 46 bd 4b 78 b1 bd
       -0.30714187 0.11484966 -0.048470654 -0.08665522
000280 38 0a 6a 3e db 35 66 be 9b d2 e4 bd bf 84 97 be
       0.2285546 -0.22481482 -0.11172982 -0.29593465
000290 18 26 d7 bc 22 86 e3 3d 41 4c 33 3d b2 01 85 3e
       -0.026263282 0.11109568 0.043773893 0.25977856
0002a0 77 89 d0 bd eb f9 26 3e 9b 40 0d be db d4 4f 3b
       -0.10182469 0.16306274 -0.13794176 0.0031712565
0002b0 a7 9b a1 be 33 95 f8 bd 70 34 34 3e 6b 57 db 3d
       -0.31564066 -0.121378325 0.17598128 0.10710033
0002c0 4b 32 44 be d2 e9 08 3c 00 de dc bd f9 08 8d 3e
       -0.1915981 0.008356528 -0.10784531 0.27545908
0002d0 d3 8c 8b be 56 b0 dd 3d 2b ca 97 3e 00 45 2f bd
       -0.27255878 0.10824649 0.2964643 -0.042790413
0002e0 c8 98 7e bd a9 4f 6a 3e 2d 87 e1 3d 03 d6 ed 3d
       -0.062157422 0.2288195 0.11012111 0.11613085
0002f0 69 30 98 bc 8c e6 34 3e e3 8f 90 be 2a ac bc bd
       -0.018577771 0.17666072 -0.28234777 -0.09212525
000300 62 cc 37 3b 7e d2 98 be 89 2d c5 3d 96 57 91 bd
       0.0028045406 -0.29848093 0.09627826 -0.07096784
000310 f5 8d 12 3d f2 ab b6 bd ef 7c 0b 3e 6f 38 91 3d
       0.035779912 -0.08919515 0.13621877 0.07090842

layer3.bias f4 [20]
000000 07 74 af 3d ca f7 36 3e a3 4c 2a bd e0 17 82 be
       0.08567052 0.17867962 -0.041576993 -0.2540884
000010 3e be d3 bd d6 8c 9b 3e 29 41 a0 be c3 d8 09 3e
       -0.1033902 0.30380887 -0.31299713 0.13461594
000020 bd 03 f9 3d df c5 be bd 19 b8 77 3e c3 84 dc 3d
       0.12158916 -0.09315085 0.24191321 0.1076751
000030 a8 34 9c be 70 f5 67 3e fa 94 f5 bd a2 aa a1 be
       -0.30508924 0.2265222 -0.11991306 -0.31575495
000040 bd a7 68 bd a0 cf 8b 3e a0 53 8d 3e 32 58 50 be
       -0.056800593 0.27306843 0.27602863 -0.20346144

layer4.weight f4 [10, 20]
000000 61 34 98 bd b0 c5 e0 bc 12 67 06 be ee 68 09 bc
       -0.074318655 -0.027438015 -0.13125256 -0.008386834
000010 ed dd de 3d 2e ba 63 3e be 3c ea bc 32 90 9d 3d
       0.10882173 0.2223899 -0.028593417 0.07693519
000020 ae ae fb 3d 83 aa df 3a ee e1 1e bd 27 b0 20 bd
       0.12289177 0.0017064366 -0.038789682 -0.039230492
000030 80 8b 22 3e f9 c6 9d 3d 51 3a 53 be 9e a4 5e bd
       0.15873528 0.07703967 -0.20627715 -0.05435621
000040 06 60 29 3e 4c b3 71 bd 7d b0 b6 3d 75 da d6 bc
       0.16540536 -0.05900888 0.08920381 -0.026227215
000050 dc be f6 3d 03 53 4d be 56 d0 22 3d 05 74 37 3c
       0.12048122 -0.20051198 0.039749466 0.011197095
000060 b6 c6 5b be 1b 4f a2 bc c1 50 33 be 36 bf b8 3d
       -0.21462521 -0.019813111 -0.17511274 0.090208456
000070 25 0e 3b be 24 5c 19 3e ce ba 1a 3c 40 a2 34 3c
       -0.18267114 0.14976555 0.009443952 0.011025012
000080 e8 c7 53 3e 8f 52 4c 3e f7 5f 54 be 6c 17 fc 3c
       0.20681727 0.19953369 -0.20739733 0.030772887
000090 79 79 53 3e 37 ce 31 3e f4 5b 59 3d 7f 31 3a bd
       0.20651807 0.17363821 0.05306621 -0.04545736
0000a0 8f 6b 00 3e 79 b1 30 3e 43 eb 21 be 6c e8 de 3b
       0.1254103 0.172552 -0.15812401 0.006802609
0000b0 b9 b4 fa bd c1 af ad 3d 56 41 8d bd 07 b5 03 3d
       -0.12241501 0.08480788 -0.068972275 0.032155063
0000c0 d4 92 ce 3d 58 bc a2 bc bc 82 68 3d 42 77 04 bb
       0.10086599 -0.0198652 0.056765303 -0.0020212685
0000d0 06 b9 75 bd 9a b0 1a be 1f 66 02 3e da 71 1a be
       -0.059990905 -0.1510643 0.12734269 -0.15082493
0000e0 1a 33 ab 3d f3 e6 68 3d 68 b1 4b 3e 83 61 16 be
       0.08359356 0.056860875 0.19891894 -0.14685635
0000f0 a8 11 31 3a 7e b6 74 bd dd a0 17 be 38 5f e5 bd
       0.0006754645 -0.05974435 -0.14807458 -0.11199802
000100 7f c7 33 3e a1 0f 9e 3d a4 56 98 3d 51 ae 5e be
       0.1755657 0.07717825 0.074384004 -0.21746184
000110 6f 8e 1a 3e 6d cc 43 bd 60 bb 12 3c c5 7f c6 3d
       0.15093397 -0.047802377 0.0089558065 0.09692339
000120 e4 c5 d1 3d aa 3c 08 be 4c 4c b6 bd da 19 7a bd
       0.10242823 -0.13304392 -0.08901271 -0.06105981
000130 04 d3 4a bd f0 0c 2e be 69 06 1a be f5 83 41 3e
       -0.049517646 -0.16997123 -0.15041508 0.18897994
000140 8e ca 14 3c 06 16 19 3e 6a fb 59 bc e6 25 52 be
       0.009081496 0.14949808 -0.013304571 -0.2052227
000150 19 c5 f4 3d 18 4a 06 be df 2d 8a 3d f4 cf dc 3d
       0.11951656 -0.13114202 0.067470305 0.107818514
000160 5f 52 e5 3d b8 5c 1f 3e 8c 12 b1 3c 7a 9b d2 3d
       0.11197352 0.15562713 0.02161529 0.10283561
000170 15 68 12 be 1d 4e fe 3d b3 8e 7d 3d 98 5b 15 3e
       -0.14297517 0.12417243 0.061903667 0.14585721
000180 fa 5c b8 3b e8 44 04 bc 73 0c 16 be c0 2c 37 be
       0.005626318 -0.008073069 -0.14653187 -0.17888165
000190 02 1e 0d be e6 55 58 be 57 e5 b7 bd 45 44 e4 3d
       -0.13780978 -0.21126518 -0.0897929 0.11145834
0001a0 5c 0a f9 3d cc 49 df bd e6 23 ef 3d 20 52 24 3e
       0.12160179 -0.109027475 0.11676769 0.16046953
0001b0 7d 99 3c 3e b3 93 a4 bd 93 47 80 3d 36 41 39 be
       0.18417926 -0.08035984 0.06263652 -0.18091282
0001c0 a5 fd 8d bd 57 29 31 be 7e 69 f4 3d ac 2d 79 3c
       -0.069331445 -0.17300926 0.119341835 0.015208643
0001d0 34 71 64 be 3e c3 40 3e 2e 87 d9 3d be 23 6a bd
       -0.22308809 0.18824479 0.106214866 -0.057162993
0001e0 0f 94 39 be 58 ac 59 3e 53 67 74 3c 55 3a 3a 3e
       -0.18122886 0.2125715 0.014917213 0.18186314
0001f0 40 23 28 be 76 ff 0a 3e d1 dc 38 be b5 5d 4f be
       -0.16419697 0.13574013 -0.18052985 -0.2025059
000200 e4 95 13 bd 5e 0b cc bd 73 a5 0a be cb 7b 0d 3e
       -0.03603162 -0.099631056 -0.13539676 0.13816755
000210 b0 e1 66 3d c0 19 cf bd 6c 13 10 be 6a 54 54 3e
       0.056367576 -0.10112333 -0.14069909 0.20735326
000220 2f 4b 9e bd 96 be 2a 3e d3 44 bf bd d7 e6 5f be
       -0.07729184 0.16674265 -0.09339299 -0.21865402
000230 71 ea de 3d d4 c5 ce bd 5a dc 5a bd a5 91 3a be
       0.1088456 -0.100963265 -0.0534328 -0.18219621
000240 45 b3 3e be 4b 21 83 bd 87 ca 38 3d 5c e3 2c bc
       -0.18623073 -0.064028345 0.04511502 -0.010552254
000250 6d c6 1b 3e 45 11 a8 bd a3 f9 3c be bc 06 b1 bd
       0.15212412 -0.08206419 -0.18454604 -0.086438626
000260 50 3f 35 bd f9 7d a9 bd 2c 98 50 be cd 62 fd bd
       -0.044249833 -0.082759805 -0.20370549 -0.123723604
000270 1d 1b 8f bd 92 06 3e 3e 8b a3 65 bd 77 e5 50 3e
       -0.06987593 0.18557194 -0.05606417 0.20400034
000280 67 a8 1a 3e 4d b7 f0 3c eb 70 01 be 04 6e 66 be
       0.15103303 0.02938428 -0.12640731 -0.22502905
000290 55 3c f8 3d f2 54 c7 3c b4 f1 ba 3d eb d7 aa bd
       0.121208824 0.024332497 0.091281325 -0.08341964
0002a0 52 c8 d3 bd 4f c6 81 3d 6c ee 33 3e 09 51 24 3e
       -0.103409424 0.063366525 0.1757142 0.16046537
0002b0 e5 82 05 3e 93 ba 34 3e 52 08 30 bb 35 33 4e be
       0.13038214 0.17649297 -0.0026860428 -0.20136721
0002c0 53 b7 89 3c 22 7c 58 be 4a e7 b9 bb 07 7d 14 3e
       0.016811049 -0.21141103 -0.0056733238 0.14500819
0002d0 0e 62 2e 3e d9 8f 54 be 6b 6d e7 bd 24 73 4e be
       0.17029592 -0.20757999 -0.11300167 -0.2016111
0002e0 99 b3 31 bd 62 52 91 3d 87 e0 a2 3d ab 9b 6b bd
       -0.04338417 0.070957914 0.079529814 -0.057521503
0002f0 fa ae 36 3e 39 16 b6 bc db a0 cc bd a4 7c 74 bd
       0.17840186 -0.022227393 -0.09991618 -0.05968918
000300 45 c7 1d be 31 e9 95 bd cf b6 df bd a5 d8 0a 3d
       -0.15408047 -0.07319868 -0.1092354 0.033898015
000310 f6 96 00 be 16 65 35 be 61 3a df bd b0 c7 02 be
       -0.12557587 -0.17714342 -0.10899807 -0.12771487

layer4.bias f4 [10]
000000 df 17 32 3e c5 de 67 3e 18 dc 75 3c c1 a9 8d bd
       0.17391919 0.22643574 0.015006088 -0.069171436
000010 31 0e 1d 3e d9 7e 0f 3d 42 fe e8 3c 9e f0 34 3e
       0.15337445 0.03503308 0.028441552 0.17669913
000020 4d 6b 9c bd a9 6e 0f be
       -0.076376535 -0.14007057

layer5.weight f4 [5, 10]
000000 41 ec 4b 3e 1f 40 28 3d 8b 8c 93 be d7 5a 86 3e
       0.19914342 0.041076776 -0.28818163 0.2624118
000010 de e4 06 be 4a 1e 69 be 8e 85 41 3d c0 e7 ad 3d
       -0.13173243 -0.2276546 0.04724651 0.084914684
000020 f7 9a b8 3d a6 29 21 3c c2 57 8f be 7d da 19 be
       0.09013932 0.00983659 -0.2799664 -0.15024753
000030 38 eb 84 be 54 29 87 be bb 3a 02 be 3a 00 91 3e
       -0.25960708 -0.26398718 -0.12717716 0.28320485
000040 ff 97 74 3e 8c ea 35 3e cc 49 9b be 0c 59 22 be
       0.23886107 0.17765254 -0.3032974 -0.15854281
000050 62 85 dc 3d fb bb 5c 3d c1 ca 19 3d b7 8b f8 3d
       0.10767628 0.05389021 0.037546877 0.121360235
000060 8c f0 02 be de 6c a8 bd 29 a7 99 be 96 0c 93 be
       -0.12787074 -0.0822389 -0.30010346 -0.2872054
000070 d5 bb 3a be 16 b9 41 bc 24 5d 4e 3e 56 d2 8b be
       -0.18235715 -0.011823913 0.20152718 -0.2730891
000080 a7 1b 86 be 73 2a 87 3d 0e 54 66 3d cd b8 7f be
       -0.26192972 0.065998934 0.056232505 -0.2497284
000090 6c 71 98 3e 4e 70 88 bc 71 ce 39 be 49 86 4e be
       0.29774034 -0.016655114 -0.18145157 -0.20168413
0000a0 45 3d 9b be 40 3e 1e be 6f 5c 0d 3e 22 0f 30 be
       -0.30320182 -0.15453434 0.13804792 -0.17193273
0000b0 23 a0 8b 3e a4 ec b1 3c be da 29 be 9b 45 28 be
       0.27270612 0.021719284 -0.1658735 -0.16432802
0000c0 48 e5 cc 3d e8 6f 13 3e
       0.100046694 0.14398158

layer5.bias f4 [5]
000000 17 a7 11 3e 43 60 55 bd ff b0 39 be c5 a5 eb bd
       0.14223896 -0.052093755 -0.18133925 -0.115062274
000010 4c 84 d2 3d
       0.1027914

layer6.weight f4 [1, 5]
000000 e9 36 c8 be 23 a4 c4 3d 51 70 ae 3e da 65 00 3d
       -0.39104393 0.09601619 0.34070066 0.031347133
000010 2d db af 3e
       0.34346905
